classifier_paraphrase-mpnet-base-v2.pt (torch, 323687 bytes, 4 tensors)

weight f4 [100, 768]
000000 1d ef 36 3e 03 ea 71 3d ab 1d 08 3e 82 1a 12 be
       0.17864652 0.05906106 0.13292567 -0.14267924
000010 1d f3 e8 bc 40 55 ae 3d 38 27 db 3d 87 9c 03 3e
       -0.028436238 0.08512354 0.1070084 0.12852679
000020 72 2a 19 3e 7b 77 c9 3c e4 42 03 be e9 19 e8 3d
       0.14957598 0.024593106 -0.12818485 0.11333067
000030 a5 38 95 bd 44 53 fd 3d 26 0a 47 bd 53 2d 9d bd
       -0.07286195 0.12369397 -0.048593663 -0.076746605
000040 1a 90 1a 3d fa ec 73 3e 50 ec bf 3d 4c 0a 11 3e
       0.037735082 0.23820868 0.09371245 0.14164084
000050 c2 c0 b0 bd ea 14 00 bb 41 12 9e 3d f8 b5 7c 3d
       -0.08630516 -0.0019543716 0.077183254 0.061696976
000060 67 99 1a 3e 3a d5 3c be 67 61 37 bc e7 d1 34 3c
       0.15097581 -0.18440714 -0.011192656 0.011036373
000070 71 2a 9a bc 1b 0e 47 be 2c d1 d2 3d 6a e9 fb bd
       -0.018819066 -0.19438975 0.102938026 -0.123003796
000080 60 2c d7 3d 9a b7 9c 3c b5 8d 23 3d 9c 3a 0c 3e
       0.10506511 0.019130517 0.039930064 0.13694233
000090 9e 15 4e bc 2d 6c 67 3e b3 94 cc bc d3 cb 33 bc
       -0.012578396 0.2259986 -0.024973249 -0.010973888
0000a0 8c 42 17 3d 1d fe a1 bc 5c de 50 3c 5d d9 0d 3e
       0.0369287 -0.019774491 0.012748327 0.13852449
0000b0 88 94 17 bd 42 cd dc bd fb 6b e4 3c 43 5a ab 3d
       -0.037006885 -0.10781337 0.02788352 0.083668254
0000c0 f1 8b 1d bd 50 2d b1 3d 65 bc 9c 3d b7 b3 f3 3b
       -0.038463537 0.08651221 0.07653121 0.007437195
0000d0 b7 ec 65 bd a9 d4 5c 3d 48 18 46 3d cb 99 0e bd
       -0.056133952 0.053913746 0.048363 -0.034814637
0000e0 e8 02 76 3d 62 85 b0 bd 9f 6b be 3d a8 1d 42 3b
       0.060061365 -0.08619191 0.09297871 0.0029619727
0000f0 c6 01 07 3e db c7 19 3d 6b d1 f6 bd bf 19 04 3d
       0.1318427 0.037544113 -0.12051662 0.032251116
000100 9f 86 82 bd f8 a6 41 bd 4c 01 a3 3d 1c 6c fe bd
       -0.06373333 -0.047278374 0.07959232 -0.12422964
000110 c5 63 94 bd d9 08 d5 3c 69 5f 80 3d cb 51 ab 3d
       -0.07245592 0.026005195 0.06268198 0.0836521
000120 40 08 95 bd ac b0 b1 3d 14 8e 20 3d f0 4a 8f bb
       -0.07276964 0.086762756 0.039197996 -0.004372947
000130 64 69 12 be 34 89 28 bd bd f5 84 bc e7 2f 36 3c
       -0.14298016 -0.041146472 -0.016230458 0.011119819
000140 6f 37 00 3e 6a 4c a2 bd 84 e8 15 3e 9d 2c d9 bc
       0.12521146 -0.07924731 0.14639479 -0.026510531
000150 7c 0c 9c 3d 89 9f c4 3d 03 a6 0e 3d 8c 2f c4 bd
       0.07619569 0.096007414 0.03482629 -0.09579381
000160 57 39 0c ba 5c 8e dd bd 15 60 da bd 21 9a d6 3d
       -0.00053491205 -0.108181685 -0.106628574 0.104786165
000170 ad 83 27 be 96 0f 4a 3d e6 ce e5 bb 17 f7 46 3b
       -0.16358824 0.04933127 -0.0070131896 0.003035968
000180 d5 a2 9f bc 72 f3 ea bb 21 e0 14 3e 09 df 95 3d
       -0.019486824 -0.007170134 0.14538623 0.07317931
000190 6e 78 df bd 30 e7 56 be 28 6f e3 bd 42 44 cf 3d
       -0.10911642 -0.20986629 -0.11105186 0.10120441
0001a0 05 ee 37 bd f3 c7 94 bb 6a 05 38 3d 08 f7 0b be
       -0.044904727 -0.0045404374 0.04492704 -0.13668454
0001b0 15 be 28 3e 7a 75 e3 bd d1 85 28 3e 47 e0 52 3d
       0.1647876 -0.11106391 0.16457297 0.05148342
0001c0 d5 2d d1 3d bf 9d 9e bd 76 5b 92 bc 12 d7 31 bd
       0.1021382 -0.077449314 -0.017865878 -0.043417998
0001d0 72 e5 01 3e db f3 c7 bd b8 90 e7 3d 6c 87 93 3d
       0.12685183 -0.097633086 0.113069 0.07203564
0001e0 fa f0 56 3c d1 01 3c bd fe b0 98 bd f6 e2 c9 bd
       0.013118977 -0.04590017 -0.074556336 -0.098577425
0001f0 08 a8 b3 3c 98 a9 f7 3d 39 3c 17 bd 52 0d f9 3d
       0.02193071 0.12092894 -0.036922667 0.12160744
000200 dd bb b0 bd 1f 8b bc 3d e4 5d a7 3d fb d0 3c be
       -0.08629582 0.09206223 0.08172205 -0.18439095
000210 c0 93 e3 bd 2f 30 8d bd 77 43 9b bd 6a 0f 12 3d
       -0.111121655 -0.06893956 -0.07581227 0.03565923
000220 c0 64 1f bd 4e 75 90 bd 9e 38 f7 3c 12 10 88 bd
       -0.038914442 -0.07053624 0.030178364 -0.0664369
000230 25 c4 b4 bd 4e 19 52 3d 02 75 03 3c a6 40 94 3d
       -0.08826474 0.051293664 0.008023502 0.07238893
000240 ac fc d9 3d 06 f8 5e bd 2c e6 e8 3d 11 cf f8 3d
       0.106438965 -0.054435752 0.11372027 0.1214887
000250 e5 3a ba 3d e6 a8 48 3d aa de 64 bc 10 59 05 3e
       0.090932645 0.0489892 -0.013969103 0.13022256
000260 e8 38 e7 3d 57 d9 0a be a0 74 cb bc 53 23 ad 3d
       0.11290151 -0.13559471 -0.024835885 0.08454003
000270 15 04 8d 3b e4 03 87 bd 8e ec 1e 3d 77 30 3b 3d
       0.004303465 -0.06592539 0.038799815 0.045700517
000280 e3 12 1d 3d 45 96 3b 3d 34 98 58 b9 3b 68 a1 bd
       0.03834809 0.045797605 -0.00020656065 -0.078812085
000290 7f b1 36 be 61 fd b9 bc a9 de 10 3b 77 06 0a bd
       -0.17841147 -0.022703828 0.0022105372 -0.03369757
0002a0 de e7 91 bc 66 a5 97 bd f7 37 d5 3d 8e b7 6d 3c
       -0.017810758 -0.07404594 0.10411065 0.014509095
0002b0 76 63 1a 3e 07 9e 25 bd 5d 05 c2 3d ab 7e 74 3d
       0.15077004 -0.04043391 0.09473679 0.059691112
0002c0 91 7d c0 bd f0 8c 1f bd 6d 63 bc bd 28 02 aa bc
       -0.0939895 -0.038952768 -0.091986515 -0.020752981
0002d0 6d c3 90 3c fe 4b 80 3d 53 23 53 3e 3d f3 ca 3d
       0.017671311 0.06264494 0.20618944 0.09909675
0002e0 7d 71 a5 bd f3 26 3a bc ea bc 2f 3d 12 50 90 bd
       -0.08078287 -0.011361825 0.042904772 -0.07046522
0002f0 b9 de 09 3e a9 b1 e8 3d 55 d2 ab 3d 97 17 14 bd
       0.13463868 0.11362011 0.08389727 -0.03615531
000300 25 84 96 3d 4d 34 dd bd 36 5d 5d bd 14 91 39 3d
       0.07349423 -0.10800991 -0.05404397 0.045304373
000310 dd 0c c9 3d e8 ce 33 ba 4e 0f 11 3e 90 dd 99 bd
       0.098169066 -0.00068591395 0.14165995 -0.07512963
000320 00 a7 1c bd 3f fb 21 3d 15 dd 56 3d 59 c2 b2 3a
       -0.0382452 0.039546248 0.052456934 0.0013638242
000330 27 04 20 bd 39 4c f1 3d bb 8b 7c 3d 47 5d a3 3d
       -0.03906646 0.117821164 0.061656695 0.079767756
000340 02 a5 28 bd e6 e6 96 3d e7 60 c7 3c b8 21 46 3b
       -0.04117299 0.07368259 0.024338199 0.00302325
000350 c4 f6 11 be ed 0f ac bb 21 a6 08 3d 69 fb 88 3d
       -0.1425429 -0.005250922 0.033361558 0.06688578
000360 03 b5 5f 3d 33 ee 29 3e 29 21 8f 3d 5b 4d 2c bd
       0.054615986 0.16594772 0.06988747 -0.04206596
000370 ea 71 b7 bd 17 79 d9 bd 16 e6 62 3e 26 5c b3 bc
       -0.08957274 -0.10618799 0.22158083 -0.021894526
000380 c8 37 6d bb 85 88 10 3d 75 a7 04 bd 52 e3 a5 bd
       -0.0036196578 0.035286445 -0.032386262 -0.080999985
000390 0b 5e cc 3d 01 48 0e bc 2c 57 24 3d 78 8e b8 3c
       0.09978875 -0.008684159 0.040122196 0.022528872
0003a0 84 e6 3d bd 55 c6 35 be 34 cd 1b bd a4 3d 69 3d
       -0.046362415 -0.17751439 -0.038037494 0.05694355
0003b0 ea c4 62 3d 2d a2 af 3d e6 5f 1f 3e 49 07 2e 3d
       0.055363573 0.085758545 0.15563926 0.042487416
0003c0 c0 31 f1 bd 7d 6f 49 bc 62 98 01 bd 20 f7 10 bb
       -0.11777067 -0.012294647 -0.031639464 -0.0022119954
0003d0 ea b6 ed 3c fa 51 1b bd e4 06 a6 bb ac b6 f9 3c
       0.029017884 -0.037919976 -0.0050667394 0.030482613
0003e0 5b d6 7b bd b3 99 f5 bc e4 ba 18 be d3 e5 ab 3d
       -0.061483722 -0.029980516 -0.14915043 0.08393445
0003f0 bc 47 0d bd f7 45 e0 bd b7 02 e0 bd 99 09 16 bc
       -0.03449224 -0.10950845 -0.10938018 -0.009157562

bias f4 [100]
000000 ac 2d 89 3d 39 69 47 3d f4 79 b0 3d 9a 1f 7b 3d
       0.06698164 0.048684333 0.08617011 0.061309434
000010 a8 e9 8f 3d 52 ec 89 3d 5c 21 5a 3d 7b 3e b3 3d
       0.07026988 0.06734528 0.05325447 0.087521516
000020 d0 b7 69 3d f3 d7 cd 3d 68 22 a4 3c 0f 72 8b 3d
       0.057060063 0.10050955 0.020035937 0.06808864
000030 32 2c 62 3d 4b 0b bc 3d 16 6e e2 3d 58 38 12 3d
       0.05521793 0.091818415 0.110561535 0.035698265
000040 02 f8 0f 3d 40 93 96 3d c1 80 51 3d ad 38 c4 3d
       0.035148628 0.073523045 0.05114818 0.095811225
000050 dd 68 7a 3d c6 bf 62 3c 20 95 2e 3d 92 d8 85 3d
       0.06113516 0.013839668 0.042622685 0.06535448
000060 19 20 85 3c 2a 75 a0 3d d2 e4 8b 3d 28 3a 17 3d
       0.016250657 0.07834847 0.068307534 0.036920696
000070 d6 1f ce 3d c5 c9 f7 3c 76 02 c4 3c 5c eb 97 3d
       0.10064666 0.030247578 0.023926955 0.07417938
000080 9d 86 61 3d 63 d0 36 3d e7 3e 00 3e 85 81 10 3d
       0.055060018 0.044632327 0.12523995 0.03527977
000090 27 59 d3 3d 1b 05 ab 3c 85 cd a4 3d 5a 26 d6 3d
       0.10319739 0.020876458 0.08047012 0.10456534
0000a0 76 c6 11 3d 5c 39 87 3d 5d 04 ea 3d a6 98 a3 3d
       0.035589658 0.06602737 0.114266135 0.079881
0000b0 31 87 8c 3d 34 fd af 3d a3 2f a6 3d 9d 00 1d 3e
       0.06861723 0.085932165 0.08114555 0.15332265
0000c0 73 66 38 3d 68 26 08 3e ff f1 3f 3d a6 ec c2 3d
       0.04501958 0.13295901 0.046861645 0.09517793
0000d0 58 ee 85 3d c7 34 c8 3d 0f d3 be 3d 90 f1 9e 3d
       0.06539601 0.097756915 0.093176 0.07760918
0000e0 d3 5a 44 3d 9c 95 19 3d d8 4d 5c 3d 8f d3 71 3d
       0.04793818 0.037496194 0.053785175 0.05903965
0000f0 ab 4d 8f 3d d5 6b 1e 3d fd 67 da 3d 7c b7 4d 3d
       0.06997236 0.038677055 0.106643654 0.050223812
000100 e5 a8 98 3d 4b 24 bf 3d fc 13 8b 3c 6b d2 61 3d
       0.07454089 0.09333094 0.016977303 0.05513231
000110 20 2b ff 3b 0d d5 a4 3d ab 65 55 3d 97 fa 34 3d
       0.0077871233 0.08048449 0.05209891 0.044184294
000120 f2 ee bb 3d 2d f1 8d 3d 5e 7c 9f 3d bb 07 8e 3d
       0.091764346 0.06930766 0.07787393 0.06935068
000130 01 6e 62 3d 38 f3 d1 3d 6c b5 61 3d 96 3f 23 3d
       0.05528069 0.102514684 0.055104658 0.039855562
000140 b0 74 33 3d 6c 73 8f 3d 09 0f 17 3d 32 e8 6f bc
       0.043812454 0.07004437 0.036879573 -0.014642762
000150 fe da 1c 3d 0d f7 28 3d ef 1c 5a 3d 14 81 bd 3d
       0.038294785 0.04125123 0.05325025 0.09253135
000160 ef 94 b9 3d eb 18 e6 3d be 6c b4 3d 2d e2 a2 3d
       0.0906161 0.112352215 0.088098034 0.07953296
000170 78 e6 aa 3d 60 20 db 3c b1 9c 3a 3d 2e d2 62 3d
       0.0834474 0.026748836 0.04555959 0.055376224
000180 ca 83 ac 3d 5d 50 b1 3d c6 17 a7 3d cd e7 c1 3d
       0.08423574 0.08657906 0.08158831 0.094680406

weight f4 [19, 100]
000000 2d 4e 67 bd a8 08 35 bd a1 a6 b3 3d 06 9f f8 3d
       -0.05647104 -0.04419771 0.08772016 0.12139706
000010 5c ce 46 3e 1d 2e 6e 3e 8f cc d2 bc ce 08 22 be
       0.19414657 0.23259778 -0.025732307 -0.15823671
000020 39 76 89 3d 24 ac 3d 3e 36 d3 8a be 21 80 61 3e
       0.06712002 0.18522698 -0.27114266 0.22021534
000030 2c c8 88 3d 21 e5 5c 3d 11 d1 65 bd 63 51 12 3c
       0.06678805 0.05392945 -0.056107584 0.008930537
000040 ca 7d 8e 3d 53 71 43 3c 4d 51 01 3d 75 c4 27 3c
       0.06957586 0.011928874 0.031571675 0.01023971
000050 88 f9 23 be a5 a6 80 be 0c e5 5d be 10 34 86 be
       -0.16013157 -0.2512714 -0.21669406 -0.26211596
000060 e6 79 09 3e 07 0e 4d 3e 63 b3 ac 3d 8c 61 28 3e
       0.13425407 0.20024882 0.08432653 0.16443461
000070 7a 4b 87 be fb 5c b2 be c8 94 e2 bc 63 77 0d 3e
       -0.26424772 -0.34836563 -0.027658835 0.13815074
000080 ad 02 35 3e fa 3e 27 3e 23 b8 6a 3e 5c b3 44 be
       0.17676802 0.16332617 0.22921805 -0.19209045
000090 17 48 22 bd 6e b9 32 bd 2c 2e 9f 3d ff 8b 02 be
       -0.03961953 -0.04363387 0.077724785 -0.12748717
0000a0 8c c6 c4 bd b5 92 99 3d df f4 ee bd 69 28 33 bd
       -0.09608182 0.07498685 -0.11667799 -0.04373971
0000b0 e8 df 28 3d 46 b8 93 3e 2d 4c ed bd 2a a2 02 be
       0.04122916 0.28851527 -0.11586795 -0.12757173
0000c0 84 83 b8 be 7e 54 17 3e 13 17 9f be 2c 75 a0 bd
       -0.36037838 0.14778325 -0.31072292 -0.07834849
0000d0 b6 af 18 be 62 77 a3 bd ab 99 b7 3d 43 ac 56 be
       -0.14910778 -0.07981755 0.08964857 -0.2096415
0000e0 fb c8 36 3e a3 35 03 be c1 88 03 3e 47 3a 23 3c
       0.17850105 -0.1281343 0.12845136 0.009962625
0000f0 c1 b9 55 3e e1 fe 1d bd c0 57 30 3c 47 fd ba be
       0.2087164 -0.03857315 0.010763109 -0.3652136
000100 05 81 34 3e 42 eb 3d be 48 d6 51 be 75 a0 12 3e
       0.17627342 -0.18546775 -0.20491898 0.14319022
000110 b0 1d a7 be d3 58 4c 3e a3 fc b4 be da e4 33 be
       -0.32639837 0.19955759 -0.35348997 -0.17567769
000120 1d 02 2a 3b 7c 93 bd bc ff 0b 16 3d 83 2a 47 be
       0.00259412 -0.023141615 0.036632534 -0.1944981
000130 c3 26 5d bd 28 90 4b 3e 61 e6 63 3d 06 9e 05 be
       -0.053992044 0.1987921 0.05563963 -0.13048562
000140 92 8e f2 be a0 9f 29 3e a3 73 17 bc b0 20 3d be
       -0.47374398 0.16564798 -0.009243879 -0.184695
000150 6c ce 23 bd ef 52 92 3e 39 70 fc 3d 93 44 3e bd
       -0.03999178 0.28578898 0.12326092 -0.046452116
000160 f3 1b 1e 3d 28 04 eb bc 10 a1 9b bc 88 3b e7 3b
       0.038600873 -0.028688505 -0.018997699 0.007056657
000170 03 e7 89 bb ef 40 58 bb 1b 73 03 bd ed 62 55 bd
       -0.004208447 -0.0032997688 -0.032092195 -0.052096296
000180 95 7c 3a 3e 76 dc aa 3e 0b 23 6d 3d 77 c4 0b 3e
       0.18211587 0.33371323 0.057894748 0.13649164
000190 07 bd 4b be 39 b8 ca 3d 92 f3 8f bd a5 08 f2 3d
       -0.19896327 0.09898419 -0.07028879 0.11818055
0001a0 c7 64 8a be 1f dd 8e bd c2 45 b1 bd 79 ac a0 3c
       -0.27030012 -0.06975769 -0.08655883 0.019613491
0001b0 3a 6f ba be c7 a7 90 3d f7 3d 11 3e 6d 77 f9 3c
       -0.36412984 0.07063251 0.14183794 0.030452454
0001c0 ce a7 ab 3d e6 d7 4d be ed 5d e8 3d 89 1f e9 bd
       0.083816156 -0.2010189 0.1134604 -0.11382968
0001d0 18 f7 8d bd 82 ee a6 bd 73 02 1d 3e 1e 65 3b 3e
       -0.06931895 -0.081509605 0.15332966 0.18300292
0001e0 e5 6e 9a be b3 73 7b 3d 20 be 1e 3e ae 13 47 be
       -0.3016273 0.061389636 0.15502214 -0.19441101
0001f0 76 ea 59 be 05 b9 69 be 92 4e d6 bc ff 30 77 be
       -0.21280846 -0.22824486 -0.026160512 -0.24139784
000200 5f a1 9b bd 5b b4 9a 3a 54 7d 85 bd bb ba 82 3d
       -0.075991385 0.0011803018 -0.06518045 0.06383272
000210 35 55 c5 be 73 52 07 3e 89 4d c2 be de 2a d3 3d
       -0.3854157 0.13215046 -0.3794978 0.10310911
000220 d5 eb 18 bd 59 8d 92 bd fa 6a 6d 3d e0 65 0a 3e
       -0.037334282 -0.07155866 0.05796335 0.13515425
000230 44 1b 32 3e 32 c7 88 be 07 a3 84 3c f2 8c 08 3e
       0.17393214 -0.26714474 0.016191019 0.13335016
000240 d6 91 98 3c 1c 43 a9 3d 1a a8 78 3e 7a 0b 90 be
       0.018624227 0.08264753 0.24282876 -0.28133756
000250 07 20 03 be a2 e9 41 be c1 d9 ff bd 58 e0 a1 be
       -0.12805186 -0.1893678 -0.12492705 -0.31616473
000260 aa 66 ff 3c 4c 34 02 bb eb 9c b2 be 09 c4 cf 3d
       0.031176884 -0.0019867597 -0.34885344 0.101448126
000270 98 74 4e be 35 bc 6b 3d ca d7 d6 3d ef b0 b8 bd
       -0.20161664 0.057552535 0.10490377 -0.090181224
000280 24 35 b0 3d d1 00 bb be 60 8e 99 be 0e b0 e8 bd
       0.08603886 -0.3652406 -0.29991436 -0.11361705
000290 f8 bf 96 bc de 4b d4 bc 70 56 b0 be 44 bc 58 be
       -0.018402085 -0.025915083 -0.34440947 -0.21165568
0002a0 ed 68 a7 bc 9b a3 53 3d c9 7b eb b9 da 24 de be
       -0.020435775 0.0516697 -0.0004491492 -0.4338749
0002b0 7f 85 1d 3e 1a 99 ac be f6 6b 2c bd c6 47 f7 bd
       0.15382956 -0.33710557 -0.042095147 -0.120742366
0002c0 ec bd 37 3e 35 b4 8a be 35 89 da be 61 44 2e bd
       0.17943543 -0.27090612 -0.42682806 -0.04254568
0002d0 f5 17 09 3e 5f 3b 9d be 9e 37 44 3e 56 8b 54 3e
       0.13388045 -0.3070936 0.19161841 0.20756277
0002e0 d6 ba 01 3e ec d8 29 3e d1 30 27 3d 1c c4 9c be
       0.12668929 0.16586655 0.04081804 -0.3061837
0002f0 99 0e 43 3d c3 19 ce be fc fb 6b 3d fb a2 91 3d
       0.047621343 -0.4025403 0.057613358 0.07111164
000300 f9 13 27 3e 0b 8d a8 be a4 a1 44 3c b5 ec c7 3d
       0.16316213 -0.32920107 0.012001429 0.09761945
000310 fd 01 f3 bd a1 30 9a be 4d c0 b0 bd 20 f7 19 3d
       -0.118656136 -0.30115226 -0.086304285 0.037589192
000320 fe d5 57 bd c2 4d e5 3d f3 9e b7 3d 1f 3c 83 3b
       -0.052694313 0.11196472 0.08965864 0.0040049697
000330 54 17 3d be 91 d4 5d be 4e a5 34 3e 90 2a f5 3d
       -0.1846593 -0.21663119 0.17641184 0.11971009
000340 cb ef 6c 3e 39 26 5f be 3a 2a 13 bc 50 55 84 be
       0.23138349 -0.21791925 -0.008982236 -0.25846338
000350 8f cb 44 3e ad 2c 7e be 8d 18 99 3d d2 ff 65 3c
       0.19218276 -0.2482173 0.07475386 0.014038043
000360 05 ac b6 3d c3 7c 15 bc 4a 63 8a 3e 0a 69 03 be
       0.08919529 -0.009123984 0.27028877 -0.12833038
000370 be cb bf bd b5 5e bf bd 1b 01 4d bd 4f ad cf 3d
       -0.093650326 -0.09344236 -0.050049882 0.10140478
000380 4b 63 2d 3e 5e 3e 25 3e 96 eb 99 be 48 38 ba 3d
       0.16932409 0.16137072 -0.3006255 0.09092766
000390 19 f6 06 3e e0 3f 0a 3e df f7 69 be 19 1a 96 be
       0.13179816 0.13500929 -0.22848462 -0.29316786
0003a0 de b3 12 3e 06 54 46 3d 57 de 02 3d 37 15 81 bd
       0.14326426 0.048419975 0.03195032 -0.063028745
0003b0 4a 88 10 be d9 76 d2 ba 86 3d 7f 3d f6 a4 76 be
       -0.1411449 -0.0016057148 0.062314533 -0.24086365
0003c0 3d 8d b9 bd 6a 26 cf bd bc 43 20 be 4a 6f 2c 3e
       -0.09060142 -0.10114749 -0.15650839 0.16839328
0003d0 4b 1f a9 bd 13 23 a6 3d 86 28 74 3e 52 ec 37 be
       -0.08257922 0.081121586 0.23843583 -0.17961243
0003e0 f2 e1 5a be ea 10 91 be 50 3c 87 3d 27 c9 0c 3b
       -0.21375254 -0.28333217 0.066033006 0.00214822
0003f0 36 17 5e bd 35 01 9c be 26 38 ff 3d 40 2a d9 3c
       -0.054221354 -0.3046967 0.12461881 0.026509404

bias f4 [19]
000000 af fe 9d bd b9 b1 2e bd 62 dd 87 3d e0 07 9c 3c
       -0.07714593 -0.04264996 0.06634022 0.019046724
000010 85 c2 67 3d 10 e8 fe 3c 44 58 66 bd 81 9d 6f 3d
       0.056581993 0.031116515 -0.05623652 0.058499817
000020 a1 10 69 bd dc d1 a7 3d 4b 10 02 be 7c d9 86 bd
       -0.056900624 0.081943244 -0.12701528 -0.065844506
000030 77 b4 64 3c bb 0e ad 3d e6 46 18 bd be f1 19 bd
       0.013959042 0.08450075 -0.03717699 -0.03758406
000040 75 3b 11 bd ab 5e 42 3c 89 06 0d 3d
       -0.035457093 0.011863391 0.03443006
