classifier_all-MiniLM-L6-v2.pt (torch, 170794 bytes, 4 tensors)

weight f4 [100, 384]
0	0xbe080bc0	-0.13285732
1	0x3e54f98a	0.20798317
2	0xbdf930ca	-0.12167509
3	0xbeaf0cbe	-0.3418941
4	0xbce4549f	-0.027872382
5	0x3e7c3c48	0.2463237
6	0x3e57d08f	0.21075653
7	0x3d169350	0.036761582
8	0x3e3f157d	0.18660541
9	0xbdc89ac5	-0.09795145
10	0x3c10869f	0.008821159
11	0xbdddcba4	-0.10829857
12	0x3e31d915	0.17367966
13	0x3e4375ef	0.19087957
14	0x3e6b003f	0.22949313
15	0xbda60343	-0.08106091
16	0x3e21f221	0.15815021
17	0x3d4d6c33	0.050152015
18	0xbcc25bc9	-0.023725407
19	0xbcd5b24d	-0.026085997
20	0xbca1d436	-0.01975451
21	0xbe30c6f7	-0.17263399
22	0x3d3d0370	0.046145856
23	0xbe1064cc	-0.14100951
24	0x3d2b32a3	0.041796338
25	0x39c7c3b4	0.00038102048
26	0x3d1ebc7d	0.038753975
27	0x3d9ec87c	0.07753083
28	0xbe55fc4c	-0.20897025
29	0xbd885410	-0.06656659
30	0xbbb3eea6	-0.0054910956
31	0x3e57593d	0.21030135
32	0x3d272d7e	0.04081487
33	0x3d553be0	0.052059054
34	0xbe7d15cd	-0.24715348
35	0xbd97fe17	-0.07421511
36	0x3d9f47c4	0.0777736
37	0x3d8232ed	0.063573696
38	0x3cb309c0	0.021855235
39	0xbd4d4f3f	-0.050124403
40	0x3e8fade7	0.28062364
41	0xbe0ae23e	-0.13562867
42	0xbe1285c1	-0.14308836
43	0xbdb8ead7	-0.09029167
44	0x3d04aa60	0.032389045
45	0x3db916aa	0.09037526
46	0x3e90a2a4	0.28249085
47	0x3e81b85a	0.25335962
48	0x3d00c185	0.031434555
49	0x3db453f9	0.08805079
50	0xbdc4bb24	-0.09606007
51	0x3d816881	0.06318761
52	0x3e97b05f	0.29626748
53	0x3d890075	0.0668954
54	0x3e140c42	0.14457801
55	0x3d8ea185	0.06964401
56	0x3e0c6446	0.13710126
57	0x3e3fdc74	0.1873644
58	0x3e089dd4	0.13341457
59	0x3e1cfb78	0.15330303
60	0x3e3faf3b	0.18719189
61	0x3d6c19c5	0.057641763
62	0xbd69eaf0	-0.05710882
63	0xbc73a3c5	-0.014870589
64	0xbd4e8e44	-0.050428644
65	0xbe0a2092	-0.13488987
66	0x3e085342	0.1331301
67	0x3d0a4c24	0.03376402
68	0xbd1bc9bc	-0.038034186
69	0x3e667305	0.22504814
70	0x3e146615	0.14492066
71	0xbe00ea92	-0.12589481
72	0xbe2fb489	-0.17158712
73	0xbd91be37	-0.07116359
74	0xba9da5c0	-0.0012027547
75	0x3e5a7945	0.21335323
76	0xbd30fa9c	-0.04320775
77	0xbd113c27	-0.035457756
78	0xbe59ec01	-0.21281435
79	0xbdef97c6	-0.1169887
80	0xbd9d2148	-0.076723635
81	0xbeb2f69c	-0.34953773
82	0x3cf44a67	0.029820634
83	0xbe0eb313	-0.13935499
84	0xbce2e3d4	-0.027696528
85	0xbe191d0e	-0.1495249
86	0x3c142548	0.009042092
87	0x3d15789b	0.03649197
88	0x3e669f6b	0.2252175
89	0x3e2a7c0b	0.16648881
90	0x3b828107	0.0039826664
91	0xbda39626	-0.07987623
92	0xbce4fad7	-0.027951641
93	0xbe107bea	-0.1410977
94	0x3d2a40b6	0.04156562
95	0xbd496250	-0.049166024
96	0xbe64b362	-0.22334054
97	0x3e30dc6a	0.17271581
98	0xbde9baa1	-0.1141255
99	0x3e34344a	0.17598072
100	0x3e1a8ed8	0.15093553
101	0x3e15c454	0.14625674
102	0x3e12427f	0.14283179
103	0xbdfa56b4	-0.122235686
104	0x3e41fbab	0.1894366
105	0xbbdca79d	-0.0067338482
106	0x3e8ae310	0.2712636
107	0x3e163695	0.14669259
108	0xbe19de25	-0.15026148
109	0xbe021827	-0.12704526
110	0x3c805287	0.015664352
111	0x3e6c1b93	0.23057394
112	0xbcdc21fb	-0.026871672
113	0x3dadc1f4	0.08484259
114	0xbd9f94e6	-0.07792072
115	0x3e61e397	0.22059475
116	0x3cf03dde	0.029326376
117	0x3e3da9fa	0.18521872
118	0xbdb55681	-0.0885439
119	0x3ddf13a9	0.10892422
120	0x3e83b071	0.25720552
121	0x3e8a1444	0.26968586
122	0xbdde500f	-0.10855114
123	0x3e29edea	0.16594663
124	0xbe398ef5	-0.1812094
125	0xbc3c19db	-0.011480774
126	0xbe19fdbd	-0.150382
127	0xbd0288b4	-0.03186865
128	0xbe2495df	-0.16072796
129	0x3e0bebe7	0.13664208
130	0xbd673a0b	-0.05645184
131	0xbd8de416	-0.069282696
132	0x3c1bb734	0.009504128
133	0x3d21245d	0.03934132
134	0x3d0d5ab5	0.034510333
135	0x3e3e9151	0.18610121
136	0x3e43684d	0.19082756
137	0xbd918f32	-0.071073905
138	0x3df51d3b	0.11968466
139	0xbd92b0c3	-0.07162621
140	0xbc9fba91	-0.019498141
141	0xbea93364	-0.3304702
142	0xbbc31af0	-0.005954139
143	0x3e686898	0.2269615
144	0xbe40c97b	-0.18826859
145	0xb9ac4e50	-0.00032864744
146	0xbd276edc	-0.040877208
147	0xbaf06561	-0.001834076
148	0x3e1fcedf	0.15606259
149	0x3dfec670	0.12440193
150	0x3d8e3b7b	0.06944939
151	0x3d71a71e	0.058997266
152	0xbe3055a8	-0.17220175
153	0xbd64304f	-0.055710133
154	0xbd436d77	-0.047711816
155	0xbd638013	-0.055542063
156	0xbc768d9c	-0.015048411
157	0x3c0352b4	0.008015323
158	0xbdcb6c6b	-0.099327885
159	0x3d8e5242	0.06949283
160	0x3e6d6c39	0.23185815
161	0x3e636498	0.22206342
162	0x3e2b816e	0.16748592
163	0xbd10db3c	-0.03536533
164	0xbce9ac52	-0.028524552
165	0xbdefcee2	-0.11709382
166	0xbdedbc49	-0.11608178
167	0xbdc30853	-0.09523072
168	0xbeae2c7c	-0.34018314
169	0xbd1fcc58	-0.039013237
170	0xbe2820ae	-0.16418716
171	0xbd8d3163	-0.068941854
172	0xbe839ec8	-0.25707078
173	0xbdc3c79e	-0.09559558
174	0xbe2199dd	-0.1578135
175	0x3cf36f33	0.02971611
176	0xbc60d294	-0.013722081
177	0x3e3c4963	0.1838737
178	0x3df072eb	0.11740669
179	0xbe34a5bf	-0.17641352
180	0xbd58dc18	-0.052944273
181	0x3e2d6853	0.16934328
182	0xbd82a132	-0.06378402
183	0x3e20ba92	0.15696171
184	0xbe8e2a6a	-0.27766734
185	0x3d6ba223	0.057527672
186	0x3e292e69	0.1652161
187	0x3de99630	0.11405599
188	0x3d33853a	0.043828227
189	0x3d34d63e	0.04414963
190	0xbe050efe	-0.12994
191	0x3dbb1c4c	0.091362566
192	0xbe9161ff	-0.28395078
193	0xbdaca177	-0.084292345
194	0x3e70af67	0.2350441
195	0x3c4becb4	0.012446571
196	0xbd6e69cc	-0.058206365
197	0x3db49e50	0.08819258
198	0x3d580c8a	0.052746333
199	0x3e4c8348	0.19971955
200	0xbcac72ba	-0.0210508
201	0x3de82324	0.113348275
202	0x3de0f6a2	0.109845415
203	0x3e1956a5	0.14974459
204	0x3e8548df	0.2603216
205	0xbc1f4cf2	-0.009722935
206	0xbd34159d	-0.043965925
207	0xbca2d7cf	-0.019878296
208	0x3d5c30c0	0.05375743
209	0x3e4132ce	0.18867037
210	0xbbd928ce	-0.0066271788
211	0xbe274ff7	-0.16339098
212	0xbc1f7f48	-0.009734936
213	0x3deda33d	0.11603401
214	0x3d6a989e	0.057274453
215	0xbddc29da	-0.1075017
216	0xbde4d5af	-0.111735694
217	0x3d9d53b2	0.07681979
218	0x3e1c86fc	0.15285867
219	0xbdf3c5b5	-0.11902944
220	0xbdc780ed	-0.097413875
221	0xbd458387	-0.048221137
222	0xbd3a137c	-0.045428738
223	0x3cc168f4	0.023609616
224	0xbce4f1b3	-0.027947282
225	0xbdd99689	-0.106244154
226	0x3dadf0e5	0.084932126
227	0xbdea38b0	-0.114365935
228	0x3e5457dc	0.2073664
229	0xbe47e99b	-0.19522707
230	0xbd8c2714	-0.06843391
231	0x3e001275	0.12507041
232	0x3d67c98e	0.056588702
233	0xbe03c511	-0.12868144
234	0xbdc8646a	-0.097847775
235	0xbea26996	-0.3172118
236	0x3d2f5745	0.042807836
237	0x3d9e5d8d	0.07732687
238	0xbe8049c5	-0.25056282
239	0xbe33d35d	-0.17561097
240	0x3e042858	0.12906015
241	0xbe9bb06d	-0.3040804
242	0xbccfba26	-0.025357317
243	0x3e52dc23	0.20591788
244	0x3e249c0e	0.16075155
245	0x3df81675	0.12113658
246	0xbdbb1184	-0.091342
247	0x3dec2343	0.11530163
248	0xbe40d6b5	-0.18831904
249	0xbd1413fe	-0.03615188
250	0x3c31c046	0.010849064
251	0x3e5c4b76	0.21513161
252	0xbdf92341	-0.12164927
253	0x3e45bf68	0.19311297
254	0x3d064b3b	0.03278659
255	0xbc9923d5	-0.018693844

bias f4 [100]
0	0x3e1c21fe	0.15247342
1	0x3cfcd294	0.03086213
2	0x3dd25b44	0.10271314
3	0x3e3e8738	0.1860627
4	0x3e287acf	0.16453098
5	0x3e233063	0.15936427
6	0x3e3e689c	0.18594593
7	0x3e24f16f	0.16107725
8	0x3e717645	0.23580272
9	0x3e195223	0.14972739
10	0x3e0830c4	0.13299853
11	0x3e07f7cc	0.13278121
12	0x3e55b1d8	0.20868623
13	0x3d464493	0.04840524
14	0x3e05e438	0.1307534
15	0x3e74c85c	0.23904556
16	0x3d87c405	0.06629185
17	0x3da8f5ea	0.082500294
18	0x3e3e8dec	0.18608826
19	0x3e11e045	0.14245708
20	0x3e41a7a5	0.18911608
21	0x3dafabd7	0.08577698
22	0x3de2e9f1	0.11079777
23	0x3e4bf033	0.19915847
24	0x3e4dc88c	0.20096034
25	0x3e414462	0.18873742
26	0x3dd07065	0.101776876
27	0x3e32a093	0.17444067
28	0x3df7cdcf	0.12099802
29	0x3e577a06	0.21042642
30	0x3dc560c0	0.09637594
31	0x3e4d2754	0.20034534
32	0x3e14e385	0.14539917
33	0x3e4b8ae9	0.19877209
34	0x3e74516a	0.23859182
35	0x3e14ecfe	0.1454353
36	0x3dd71919	0.10502834
37	0x3e6f4787	0.2336713
38	0x3e090e8a	0.13384452
39	0x3e1736eb	0.14767043
40	0x3e424228	0.18970549
41	0x3dd679ca	0.10472448
42	0x3e1e61ba	0.15466967
43	0x3e0e824f	0.13916896
44	0x3e237809	0.15963759
45	0x3e40faed	0.1884572
46	0x3e469620	0.19393206
47	0x3df55162	0.11978413
48	0x3d8add8e	0.067805395
49	0x3e365dc7	0.1780921
50	0x3e2195a5	0.15779741
51	0x3d862341	0.06549693
52	0x3e042680	0.12905312
53	0x3e016465	0.12635954
54	0x3e20aae3	0.15690188
55	0x3e2945d8	0.1653055
56	0x3e2d482e	0.16922066
57	0x3e1f488e	0.15555021
58	0x3e33d3d0	0.17561269
59	0x3ddd98e9	0.10820181
60	0x3dcbe278	0.09955305
61	0x3deb8c33	0.1150135
62	0x3dfa7e4e	0.12231122
63	0x3e0abc11	0.13548304
64	0x3db36eff	0.08761405
65	0x3db5694c	0.088579744
66	0x3e18c055	0.14917119
67	0x3dadbf0c	0.08483705
68	0x3e0093ba	0.12556353
69	0x3e33e09e	0.17566153
70	0x3e2100ae	0.15722916
71	0x3e093967	0.13400804
72	0x3e3bc14b	0.18335454
73	0x3e11504b	0.14190786
74	0x3e60fba1	0.21970989
75	0x3e52a1b1	0.20569493
76	0x3e46002a	0.19336
77	0x3e4f86a9	0.20266213
78	0x3e385687	0.18001758
79	0x3e130855	0.14358647
80	0x3e41d835	0.18930133
81	0x3e11c2fc	0.14234537
82	0x3e3fdfec	0.18737763
83	0x3df3a001	0.11895753
84	0x3dc9fc4d	0.09862576
85	0x3dd3b059	0.1033637
86	0x3e2e1b18	0.17002523
87	0x3e4dd7b2	0.20101812
88	0x3e3280f2	0.17432001
89	0x3e3f89cf	0.18704914
90	0x3e268d26	0.16264781
91	0x3e2a21f3	0.16614513
92	0x3e2dfff9	0.16992177
93	0x3e15b143	0.14618401
94	0x3e10e91a	0.14151421
95	0x3df6622c	0.120304435
96	0x3de8fa36	0.11375849
97	0x3e887599	0.2665222
98	0x3e42e713	0.1903346
99	0x3e4bd943	0.19907098

weight f4 [19, 100]
0	0x3e312486	0.17299089
1	0xbe7e52b7	-0.2483624
2	0x3e46232e	0.19349357
3	0x3e8d3089	0.27576092
4	0xbe2d8eea	-0.16949049
5	0xbec0d6e7	-0.37663957
6	0x3e0d14d3	0.13777475
7	0x3e056aac	0.13028973
8	0x3dd0da17	0.10197847
9	0x3dc24696	0.094861194
10	0x3c9a1a79	0.018811451
11	0xbe59fac9	-0.21287073
12	0xbc42148c	-0.011845719
13	0xbe52059a	-0.2050995
14	0xbe9822d5	-0.29714075
15	0x3de26f8b	0.110564314
16	0x3e0db65a	0.13839093
17	0xbe164f5c	-0.1467871
18	0x3d2376af	0.039908107
19	0x3e6273a6	0.22114429
20	0x3a9d269a	0.0011989654
21	0xbdfbfcb7	-0.12304061
22	0xbeb45e7a	-0.3522833
23	0xbec37658	-0.38176227
24	0x3d986dec	0.07442841
25	0x3e1cf00b	0.15325944
26	0xbe9500a8	-0.29102063
27	0x3eb6a873	0.35675392
28	0xbe3c2cbc	-0.1837644
29	0xbdd24853	-0.10267701
30	0xbeb6fe7a	-0.35741025
31	0x3ed1b7ec	0.40960634
32	0xbe454f23	-0.1926847
33	0x3e2912a5	0.16511019
34	0x3e437087	0.19085895
35	0x3d642081	0.05569506
36	0xbe8f84e7	-0.28031084
37	0x3e904398	0.2817657
38	0xbcd0358b	-0.025416156
39	0x3d9e7a02	0.07738115
40	0x3e48412a	0.19556108
41	0xbe28b878	-0.16476619
42	0x3db3203d	0.08746383
43	0xbe09045c	-0.13380569
44	0x3e495576	0.19661507
45	0x3e5d8ba3	0.21635298
46	0x3e8894a5	0.26675907
47	0x3dbe6be0	0.09297919
48	0xbed6efda	-0.41979867
49	0xbdc07e49	-0.09399087
50	0x3dceb3af	0.10092866
51	0xbe5dbee0	-0.21654844
52	0x3e8911e9	0.26771477
53	0x3d81dc2b	0.06340822
54	0xbe8831a9	-0.26600388
55	0x3e9cecfd	0.30649558
56	0x3db4971f	0.088178866
57	0xbea611b6	-0.32435387
58	0x3e94e497	0.2908065
59	0xbea1e9a8	-0.31623578
60	0xbe0deacf	-0.13859104
61	0x3e2c1df4	0.16808301
62	0x3d0a3569	0.033742342
63	0xbd3b324c	-0.045702264
64	0xbf38ee44	-0.72238564
65	0xbe8cb2bc	-0.27480114
66	0x3cb57823	0.022152012
67	0x3e363196	0.17792353
68	0xbd5f4b12	-0.054514952
69	0xbd3a7a17	-0.04552659
70	0xbe452e61	-0.19255973
71	0x3ea874d4	0.32901633
72	0xbe558fe6	-0.20855674
73	0x3c2fdd62	0.010733934
74	0x3eaf7fe6	0.34277266
75	0x3ed8c713	0.42339382
76	0xbe2971a1	-0.16547252
77	0xbe117d9d	-0.14208074
78	0xbe7be33d	-0.24598403
79	0xbd94a20c	-0.072574705
80	0xbdcfc60b	-0.101451956
81	0x3e0b90db	0.13629477
82	0xbe05c608	-0.13063824
83	0xbe8b7a41	-0.2724171
84	0xbecdac8b	-0.40170702
85	0xbdd0b103	-0.10190012
86	0x3dd7f47a	0.10544677
87	0x3ea993cd	0.33120576
88	0xbe8bbd7e	-0.2729301
89	0x3dace075	0.08441249
90	0x3de0ea9d	0.10982249
91	0x3e9e85de	0.30961508
92	0xbe6bbd41	-0.23021413
93	0x3de968f6	0.11396973
94	0xbe259e3a	-0.1617364
95	0xbe770179	-0.24121656
96	0xbe856fbd	-0.26061812
97	0x3ea5514f	0.32288596
98	0x3eab1c62	0.33420092
99	0xbd832cbf	-0.06405019
100	0x3e858180	0.26075363
101	0x3cbd54e9	0.023111777
102	0xbe61d456	-0.22053656
103	0x3e65f28c	0.22455806
104	0x3e60ff57	0.21972404
105	0x3e4ae86e	0.19815227
106	0x3d69c3a6	0.05707135
107	0x3b7438d6	0.0037265322
108	0xbecce959	-0.4002178
109	0x3e8718ee	0.26386207
110	0xbe7b9f42	-0.24572471
111	0xbe879e2c	-0.26487863
112	0x3d96e568	0.073679745
113	0xbd7d0d64	-0.06178035
114	0xbf120b56	-0.5704855
115	0xbdfadbd7	-0.122489624
116	0xbdaa245a	-0.08307715
117	0xbe538cc2	-0.20659164
118	0xbc0266af	-0.007959052
119	0xbd8031f4	-0.06259528
120	0xbec35db7	-0.38157436
121	0xbd4117f9	-0.047142003
122	0xbd895580	-0.06705761
123	0x3e5d32ea	0.21601453
124	0xbca8c9f3	-0.02060411
125	0x3ea2503e	0.31701845
126	0xbe2bd0f4	-0.16778928
127	0xbeda8d71	-0.42686036
128	0xbeb95537	-0.36197826
129	0xbe9c64d7	-0.30545685
130	0x3de6ce89	0.11269862
131	0xbe2909e5	-0.1650768
132	0xbe123c67	-0.14280854
133	0xbed2c945	-0.4116918
134	0x3d9fa51b	0.07795163
135	0xbf04f8cb	-0.5194213
136	0xbe40f023	-0.18841605
137	0x3e7a1f69	0.24426045
138	0xbe8d3090	-0.27576113
139	0xbee41e2a	-0.44554263
140	0xbeda7980	-0.42670822
141	0xbe820c5b	-0.2540005
142	0xbf1783a5	-0.5918525
143	0xbd98baa4	-0.07457474
144	0xbf1c71a3	-0.61110896
145	0xbe9df40e	-0.3085026
146	0xbecd6d50	-0.4012246
147	0xbf01e4b9	-0.5073963
148	0x3e2b1c76	0.16710076
149	0xbe75a4e7	-0.23988687
150	0x3d4bdf39	0.04977343
151	0xbe467fd1	-0.19384696
152	0x3e2df93e	0.1698961
153	0xbf169aa5	-0.5882972
154	0xbe366099	-0.17810287
155	0x3e0a624a	0.13514057
156	0x3e851e0c	0.25999486
157	0x3e1ccf72	0.15313509
158	0x3ea832f2	0.32851368
159	0xbd996fb2	-0.07492007
160	0xbd963169	-0.07333643
161	0xbb3cf348	-0.002883153
162	0xbed4a648	-0.41533113
163	0xbea23750	-0.31682825
164	0xbe6c9eb9	-0.23107423
165	0x3e1aa353	0.15101366
166	0x3dcae4ad	0.09906898
167	0x3e2e5b0e	0.17026922
168	0xbe923710	-0.28557634
169	0x3e33f0e2	0.17572358
170	0xbea15ea3	-0.31517515
171	0xbf25d02f	-0.6477079
172	0x3c759f35	0.014991571
173	0x3e9bb51e	0.3041162
174	0x3c3b757c	0.011441585
175	0xbf2b5d3d	-0.66939145
176	0xbd9cb76b	-0.07652172
177	0xbea2ffe8	-0.31835866
178	0x3e566cac	0.20939893
179	0xbdb64181	-0.08899213
180	0x3eb31353	0.3497568
181	0xbec9157a	-0.39274198
182	0xbf024dc8	-0.50899935
183	0x3e5b770c	0.21432132
184	0xbeebc986	-0.46052188
185	0xbc8b31dc	-0.016991548
186	0x3dea8698	0.11451453
187	0x3cb0f321	0.021600308
188	0x3e2adead	0.16686507
189	0x3e0143bb	0.12623493
190	0x3e7dddcf	0.24791645
191	0xbdeca3c6	-0.11554675
192	0x3e5cf48a	0.21577659
193	0xbeb1336d	-0.34609547
194	0x3cca033a	0.024659742
195	0x3e4990f8	0.19684207
196	0xbe97539a	-0.2955597
197	0xbeeb02bb	-0.4590052
198	0xbea8f9be	-0.33003038
199	0x3e812d1e	0.25229734
200	0x3e7211e0	0.23639631
201	0x3e3a061e	0.18166396
202	0x3df74525	0.12073735
203	0xbea4a16d	-0.32154408
204	0x3d698117	0.057007875
205	0xbeb5fd45	-0.35544792
206	0x3e02f48b	0.12788598
207	0xbe865ee3	-0.26244268
208	0xbef019c0	-0.46894646
209	0x3e4d6186	0.20056733
210	0xbdd4b193	-0.10385432
211	0xbd55fca1	-0.05224288
212	0xbec8e188	-0.39234567
213	0x3da907c6	0.08253436
214	0xbe7d560e	-0.24739859
215	0xbe5856e1	-0.21126892
216	0x3d6176f2	0.055045076
217	0x3d93c2c0	0.0721488
218	0x39fd3183	0.0004829281
219	0x3dcaa182	0.098940864
220	0x3e266c2a	0.16252199
221	0x3e7ead95	0.24870904
222	0x3d600d40	0.054700136
223	0xbe946041	-0.28979686
224	0x3da4539f	0.08023762
225	0xbe90201a	-0.28149492
226	0x3e2a54ff	0.16633986
227	0x3da37b9c	0.07982561
228	0x3e807a94	0.2509352
229	0x3ddfc5b0	0.10926378
230	0xbd001682	-0.031271465
231	0xbe30ee3a	-0.17278376
232	0xbe971238	-0.29506087
233	0xbe2d462d	-0.16921301
234	0xbe8c8f22	-0.27452952
235	0x3e0ac90f	0.1355326
236	0x3e6f80fb	0.23389046
237	0xbe5fbd19	-0.21849479
238	0xbe1dacd0	-0.15397954
239	0x3e854228	0.26027036
240	0x3e5010d3	0.20318918
241	0x3d50a5b1	0.050939266
242	0xbe73dd2d	-0.2381484
243	0x3e0cff7d	0.13769336
244	0xbea3ae52	-0.31968933
245	0xbdee4d00	-0.1163578
246	0x3e8e9380	0.2784691
247	0xbe03207b	-0.12805359
248	0x3e784614	0.24245483
249	0xbdd82eff	-0.10555839
250	0x3e0d1692	0.13778141
251	0x3bd4c6ae	0.006493411
252	0x3e265839	0.16244592
253	0xbeb9b895	-0.36273637
254	0x3e807f13	0.2509695
255	0x3db19dec	0.08672699

bias f4 [19]
0	0xbb98447f	-0.0046468372
1	0xbc401f89	-0.011726269
2	0xbcbc3efc	-0.022979252
3	0xbd4f191d	-0.05056106
4	0x3d3d4186	0.046205066
5	0x3db44ad9	0.088033386
6	0xbbf93459	-0.0076051173
7	0xbdac0100	-0.08398628
8	0xbd347a3a	-0.044061877
9	0xbdad9315	-0.08475319
10	0xbdf1a0d4	-0.11798254
11	0xbdf976d5	-0.121808685
12	0x3dc16c84	0.09444526
13	0x3d188f45	0.037246007
14	0xbbefccc0	-0.0073181093
15	0x3e24936d	0.16071863
16	0xbd91c144	-0.071169406
17	0xbd71f11d	-0.059067834
18	0xbc449032	-0.0119972695
